model/substitute_model.pth (torch, 131947 bytes, 6 tensors)

fc1.weight f4 [128, 121]
0	0x3e031293	0.12800054
1	0xbcabc590	-0.020968229
2	0xbc587020	-0.013210326
3	0x3c5b62ad	0.013390225
4	0xbbef6ef2	-0.007306927
5	0x3e0a5b61	0.13511421
6	0x3b215e20	0.0024622753
7	0x3c9411b4	0.018074848
8	0x3d9866cc	0.07441482
9	0xbd910faf	-0.070830695
10	0x3df464a5	0.11933259
11	0x3d717a68	0.058954626
12	0x3d9fc5c8	0.07801396
13	0x3d9e86a4	0.077405244
14	0x3cf201dc	0.029541902
15	0xbd0bd02a	-0.034134068
16	0xbcda5624	-0.026652403
17	0x3d9ff434	0.0781025
18	0xbc8e5370	-0.01737377
19	0xbb86fca0	-0.0041194707
20	0xbd5b3a23	-0.05352224
21	0x3cbe2883	0.023212677
22	0xbd962a18	-0.073322475
23	0xbd907c59	-0.070549674
24	0xbd69bc75	-0.057064492
25	0x3aeca580	0.0018054694
26	0x3cc86b00	0.024465084
27	0xbd6c9149	-0.057755742
28	0x3c3a56d0	0.011373237
29	0x3c512478	0.0127650425
30	0x3ab70f00	0.0013966262
31	0xbdb59dc9	-0.08867986
32	0x3d0750f4	0.033036187
33	0x3da4a8a6	0.0803998
34	0x3c694790	0.014238253
35	0x3d87209e	0.06598018
36	0x3da1cd72	0.07900514
37	0x3c085208	0.008320339
38	0x3bebf890	0.007201262
39	0x3cf4d8b0	0.02988848
40	0x3d456688	0.048193485
41	0xbd7f6378	-0.06235072
42	0xbd05ab8f	-0.032634314
43	0x3d3ef518	0.04662046
44	0x3d959023	0.073028825
45	0xbc5526a0	-0.013009697
46	0x3da07d82	0.07836439
47	0xbd21440f	-0.039371546
48	0x3db08c16	0.08620469
49	0xbd3e0872	-0.046394773
50	0xbd10bbd8	-0.03533539
51	0x3d3f046c	0.046635076
52	0xbdb70169	-0.08935816
53	0xbd1e88bb	-0.038704615
54	0x3c1444df	0.009049623
55	0xbd2eac9c	-0.042645082
56	0x3d6b7b08	0.05749038
57	0x3d1d9350	0.038470566
58	0x3d403338	0.046923846
59	0xbcfa916b	-0.030586919
60	0xbdc90eb4	-0.098172575
61	0xbd14604c	-0.03622465
62	0xbc84630c	-0.01616051
63	0xbd3a0838	-0.045417994
64	0x3d063a9a	0.03277073
65	0xbddf2549	-0.108957835
66	0x3c8d3ce8	0.017240956
67	0x3d9af48a	0.075661734
68	0x3c9318c0	0.017956138
69	0x3da42f08	0.08016783
70	0x3d5a3528	0.05327335
71	0xbc651518	-0.01398208
72	0xbd7c9460	-0.06166494
73	0x3d58a304	0.05288984
74	0xbdb24c28	-0.08705932
75	0xbbeda700	-0.007252574
76	0xbda37d50	-0.07982886
77	0x3dab9e3a	0.08379789
78	0x3cab5528	0.02091463
79	0xbc8967b0	-0.016773075
80	0xbbc76570	-0.0060850903
81	0xbd895e8d	-0.06707487
82	0xbc946e50	-0.018119007
83	0x3d76adb4	0.06022425
84	0xbd8bde4d	-0.0682951
85	0xbd4d0618	-0.05005464
86	0x3ce04640	0.027377248
87	0x3d2eecd0	0.04270631
88	0xbc1aeaa0	-0.009455353
89	0xbd01f626	-0.031728886
90	0x3d47de3c	0.048795924
91	0xbae3e700	-0.0017387569
92	0x3c97e9eb	0.018544158
93	0x3cfdce7c	0.030982248
94	0x3d7cdcf8	0.06173417
95	0xbda05afc	-0.07829854
96	0x3d4a2479	0.04935119
97	0x3d6c0028	0.057617337
98	0x3cda8f34	0.026679613
99	0x3c676ebf	0.014125525
100	0xbd8a4f9c	-0.067534655
101	0x3b3bae60	0.002863787
102	0x3d0c78e9	0.034294996
103	0xbd453ad1	-0.048151795
104	0xbdae60c1	-0.08514548
105	0x3d5e0bfc	0.054210648
106	0xbd2550c0	-0.040360212
107	0xbd4de143	-0.050263654
108	0x3d21a751	0.039466206
109	0xbd8cff79	-0.06884665
110	0xbb8042ba	-0.0039142044
111	0x3db5660c	0.088573545
112	0xbd8a08e5	-0.06739978
113	0xbd91bd56	-0.07116191
114	0xbcf8c7f1	-0.030368777
115	0x3cfed2fa	0.03110646
116	0x3b371860	0.0027938113
117	0x3d6d779c	0.057975397
118	0x3d4b61bf	0.049653765
119	0xbd736a78	-0.05942771
120	0xbcd8c99f	-0.026463328
121	0x3d7724de	0.060337894
122	0xbcce1da4	-0.025160618
123	0xbd0a1652	-0.033712693
124	0x3dfd64a2	0.1237271
125	0x3e127dfe	0.14305875
126	0x3d8e83fb	0.06958767
127	0x3d894be0	0.06703925
128	0x3db85f9e	0.090026125
129	0x3cfeb280	0.031090975
130	0x3c0ece52	0.008716183
131	0x3d97de66	0.07415466
132	0xbd95c108	-0.073122084
133	0xbd7f177a	-0.06227825
134	0xbb888e60	-0.004167363
135	0x3cdec84c	0.027195118
136	0x3cfac7f4	0.030612923
137	0x3d90e4f4	0.07074919
138	0x3d0472da	0.032336093
139	0xbdb8d17c	-0.09024331
140	0x3ca97f74	0.020690657
141	0xbc09b108	-0.008404024
142	0x3ca32c30	0.019918531
143	0xbd09c1e9	-0.033632193
144	0xbcce127c	-0.025155298
145	0x3c54b610	0.01298286
146	0xbd2d0ddb	-0.04224954
147	0x3dac4710	0.084119916
148	0x3a654f80	0.0008747503
149	0xbd620272	-0.055178113
150	0x3db12206	0.086490676
151	0x3d64b8dc	0.05584036
152	0xbd610569	-0.0549368
153	0x3d348cc0	0.044079542
154	0x3c5dbf78	0.013534419
155	0x3d941164	0.072298795
156	0x39ee6700	0.00045471638
157	0x3d2a9e44	0.04165484
158	0xbdb7a9ec	-0.08967957
159	0xbc3720b0	-0.011177227
160	0xbcd8d9f0	-0.026471108
161	0xbd57c860	-0.052681327
162	0xbd82c560	-0.063853025
163	0x3d21e23c	0.039522395
164	0xbd073558	-0.033009857
165	0xbb62ca5a	-0.0034605474
166	0xbc5c6780	-0.013452411
167	0x3d516980	0.051126003
168	0xbd42ba46	-0.047540925
169	0xbc6d095a	-0.014467562
170	0xbdba0d83	-0.090846084
171	0x3d21b908	0.0394831
172	0xbc9b9798	-0.018993184
173	0x3c92d6a8	0.017924622
174	0x3d7050e5	0.058670897
175	0xbda6528a	-0.08121212
176	0x3de03030	0.10946691
177	0xbd4e61ac	-0.050386116
178	0xbd8073cd	-0.06272087
179	0xbc676f38	-0.014125638
180	0x3d81770f	0.06321537
181	0x3d0e3d06	0.034726165
182	0x3c6c2e10	0.014415279
183	0x3d3c4174	0.04596086
184	0xbcef33e4	-0.029199548
185	0x3d45af6c	0.048263
186	0xbd8d1cce	-0.0689026
187	0xbdafe738	-0.08589023
188	0xba97c400	-0.0011578798
189	0x3d939148	0.072054446
190	0x3d2f2d90	0.04276806
191	0x3c3648a0	0.011125714
192	0xbbd401d0	-0.0064699426
193	0x3db98b44	0.09059766
194	0x3ca3f87c	0.020015948
195	0xbd2f0315	-0.04272755
196	0xbd63542c	-0.055500194
197	0xbdb15d0d	-0.08660326
198	0x3cfb145c	0.030649357
199	0xbd1e300f	-0.03862005
200	0xbd86cf23	-0.06582477
201	0x3d1820c0	0.037140608
202	0x3d98e83a	0.07466169
203	0x3da7a76e	0.081862316
204	0xbd971285	-0.07376579
205	0x3db35674	0.08756724
206	0xbdb8e370	-0.09027755
207	0xbcc3ac40	-0.023885846
208	0xbd925766	-0.07145576
209	0xbceca024	-0.028884955
210	0x3d203080	0.039108753
211	0x3d8a5350	0.06754172
212	0x3d59d21c	0.05317889
213	0x3da9f7ba	0.08299203
214	0xbcec29e4	-0.028828569
215	0xbd088d66	-0.033337973
216	0x3b48dde0	0.0030649826
217	0xbd0a0bc2	-0.03370262
218	0x3c93de24	0.01805026
219	0x3b0135e0	0.001971595
220	0x3d0a6e11	0.033796374
221	0x3d35dbd8	0.044399112
222	0x3c6aafb8	0.014324121
223	0xbc23fb5f	-0.010008662
224	0xbd769103	-0.060196888
225	0xbd83ec51	-0.06441558
226	0xbb6b4820	-0.0035901144
227	0xbc2e0868	-0.010622121
228	0x3d1c04e8	0.038090616
229	0x3db9ef68	0.09078866
230	0xbc84d745	-0.01621593
231	0x3df308e9	0.11866934
232	0xbd25da78	-0.04049155
233	0x3c02da88	0.007986672
234	0x3d8b6900	0.068071365
235	0x3ce7e830	0.028308958
236	0x3bd61c45	0.0065341317
237	0xbdb50f80	-0.08840847
238	0xbd8c6a46	-0.068562075
239	0x3ded867b	0.11597916
240	0x3aadaff3	0.001325129
241	0x3cf5a0c3	0.029983884
242	0xbd579bbd	-0.052638758
243	0x3c7fb8f8	0.015608065
244	0x3d7b64fc	0.061375603
245	0x3cf53912	0.02993444
246	0x3d27c9d4	0.040963963
247	0x3ce58526	0.028017592
248	0x3d95b67e	0.07310198
249	0x3d79dfc0	0.0610044
250	0x3b6af9e0	0.0035854504
251	0xbd22a7c8	-0.03971079
252	0xbd086b3c	-0.03330539
253	0xbd0b517d	-0.03401326
254	0x3c0b7bd4	0.00851341
255	0xbd1d209a	-0.03836117

fc1.bias f4 [128]
0	0x3d64505b	0.055740695
1	0x3d86c839	0.06581158
2	0x3ac246c4	0.0014822115
3	0x3d9b743a	0.07590528
4	0x3cc6ac57	0.0242521
5	0x3d8d279a	0.06892319
6	0xbd2c350c	-0.042042777
7	0x3dad2971	0.0845517
8	0x3c2aac78	0.010417096
9	0xbda809c3	-0.08204987
10	0x3daff911	0.085924275
11	0x3dc78e2a	0.097439125
12	0x3d981fa7	0.07427912
13	0x3d269d73	0.0406775
14	0x3d73dc74	0.059536412
15	0x3d027776	0.031852208
16	0xbd5e900f	-0.054336604
17	0x3d24a566	0.0401968
18	0x3d101a22	0.035181172
19	0x3d865abd	0.06560276
20	0x3d4c9ba7	0.04995313
21	0xbda8a3ff	-0.08234405
22	0xbb91735d	-0.004438801
23	0xbc753053	-0.014965135
24	0xbd97927c	-0.074009866
25	0x3cb7c850	0.022434384
26	0xbd9c8463	-0.07642438
27	0x3c7c20da	0.015388692
28	0x3b3ddff6	0.0028972602
29	0x3b09736b	0.0020973335
30	0x3d340192	0.04394681
31	0x3d35224c	0.04422216
32	0xbdb8fc0b	-0.090324484
33	0xbd936a7c	-0.07198045
34	0x3cbfbdc4	0.023405917
35	0x3da137ce	0.07871972
36	0x3d48338e	0.04887729
37	0xbbed1ea5	-0.007236319
38	0xbbf8b752	-0.007590213
39	0x3d1e1b0e	0.03860002
40	0x3da62e92	0.08114351
41	0xbb4e5551	-0.0031483958
42	0xbc98d3d3	-0.018655693
43	0x3d5c8f7c	0.053847775
44	0xbd6c3a88	-0.057673007
45	0x3db040b3	0.086060904
46	0x3d785601	0.060628895
47	0x3b5b6a71	0.0033480192
48	0xbd9070b9	-0.0705275
49	0x3b8311f6	0.003999944
50	0x3d5c7851	0.05382568
51	0xbb9c9c8b	-0.0047794036
52	0xbd15016f	-0.03637832
53	0x3d9b46e6	0.07581882
54	0x3dac5030	0.08413732
55	0x3cf1ab77	0.029500706
56	0xba9a0ad3	-0.0011752493
57	0x3d55bcdd	0.052182067
58	0x3d5bf726	0.053702496
59	0xbcffa9ad	-0.031208837
60	0x3c912aba	0.017720569
61	0x39f743a8	0.0004716192
62	0x3d86fe2c	0.06591448
63	0xbcc20bb4	-0.023687221
64	0x3d808dbd	0.062770344
65	0xbbe7db7d	-0.0070757256
66	0xbc8bdc74	-0.017072894
67	0x3d7a5fd8	0.06112656
68	0x3de4d7e2	0.11173989
69	0x3cda718c	0.026665471
70	0x3d17dd63	0.037076365
71	0x3dbf5f71	0.09344376
72	0xbda01133	-0.078157805
73	0x3d95edb4	0.07320729
74	0xbd29050e	-0.041264586
75	0x3d9ce4af	0.076608054
76	0xbd4da796	-0.05020865
77	0x3cfc5582	0.030802492
78	0xbdc38d11	-0.09548391
79	0x3c836ad1	0.016042145
80	0xbd8a2e5c	-0.067471236
81	0x3d590ced	0.052990843
82	0xbce4bfe8	-0.02792354
83	0xbd1a03bf	-0.03760123
84	0x3d45b9dd	0.048272956
85	0x3d252fa1	0.040328626
86	0x3d3bf552	0.045888253
87	0xbd054e34	-0.032545283
88	0x3d2e2fa0	0.042525887
89	0x3d5b1c19	0.053493593
90	0x3dcc2e5c	0.0996978
91	0x3cff454e	0.031160977
92	0xbcc7cdbc	-0.024390094
93	0xbc67257d	-0.014108059
94	0xbd0edd02	-0.03487874
95	0xbdafa849	-0.0857702
96	0x3d9673d4	0.07346311
97	0x3cc50c0e	0.0240536
98	0x3cd616c9	0.026133912
99	0x3dbe7730	0.09300077
100	0x3d5c19ca	0.053735532
101	0x3b56ac8e	0.003275666
102	0xbb9cd2d8	-0.0047858767
103	0x3cde994b	0.027172705
104	0x3c203d81	0.009780289
105	0xbd687a60	-0.05675733
106	0xbd635636	-0.05550214
107	0x3cb2170a	0.021739502
108	0x3dc91252	0.098179474
109	0x3d509588	0.050923854
110	0x3c3faa47	0.011698312
111	0x3d780f02	0.060561188
112	0x3c271638	0.010198168
113	0x3db0774d	0.08616505
114	0x3dbbde1e	0.09173225
115	0x3dca310e	0.09872638
116	0xbd81e50f	-0.063425176
117	0x3cbc6e4e	0.023001816
118	0x3d8fe61c	0.07026312
119	0x3b776d38	0.0037754308
120	0xbd38b715	-0.045096476
121	0xbd004f92	-0.031325884
122	0xbc46b896	-0.01212897
123	0x3cb8578b	0.022502681
124	0xbd206773	-0.039161157
125	0xbce452a3	-0.027871436
126	0x3d2f0c49	0.042736325
127	0xbd93684a	-0.07197626

fc2.weight f4 [128, 128]
0	0x3d435f34	0.047698215
1	0x3cb1b08c	0.02169063
2	0x3d99c582	0.07508375
3	0x3d33d235	0.04390164
4	0xbd58f054	-0.05296357
5	0xbd4affc7	-0.049560335
6	0x3c5c9bc4	0.013464872
7	0xbc93db03	-0.018048769
8	0x3d562c0f	0.05228811
9	0xbd5374f8	-0.051625222
10	0x3d1cfb77	0.038325753
11	0xbdc84e7f	-0.09780597
12	0x3ca69c65	0.020338247
13	0x3d80c477	0.06287473
14	0xbd491d73	-0.04910035
15	0x3d8cdbae	0.06877838
16	0xbdf23f7a	-0.118285134
17	0xbd9f84a0	-0.07788968
18	0x3d6926e6	0.056921862
19	0xbd9f9946	-0.077929065
20	0x3d83fc79	0.0644464
21	0xbcfdfa00	-0.031002998
22	0xbd6b0345	-0.057376165
23	0xbd4f3168	-0.050584227
24	0xbda131fc	-0.07870862
25	0xbc865049	-0.016395705
26	0xbc46aab0	-0.012125656
27	0x3d783e9c	0.060606584
28	0x3d7f1480	0.06227541
29	0x3c6afa91	0.014341966
30	0xbd803dc3	-0.0626178
31	0xbc1dd4bc	-0.009633239
32	0xbdaae5f2	-0.0834464
33	0x3c3d0e1c	0.0115390085
34	0xbd07b41e	-0.033130758
35	0xbac31fee	-0.0014886835
36	0xbc860eb4	-0.016364433
37	0xbbcca293	-0.0062449663
38	0xbd3a3312	-0.04545886
39	0x3c987556	0.018610638
40	0xbdc7dc94	-0.09758869
41	0xbd4931ac	-0.049119636
42	0x3def87ac	0.11695799
43	0xbd9762b0	-0.0739187
44	0x3d041640	0.03224778
45	0xbbf134bd	-0.007361023
46	0xbce20aa8	-0.027592972
47	0x3d6049ce	0.054757886
48	0xbd9ac196	-0.07556455
49	0xbd767e98	-0.060179323
50	0xbbe40a8f	-0.0069592665
51	0xbd24a8a5	-0.040199894
52	0xbdec9471	-0.115517505
53	0xbcc90acc	-0.024541281
54	0xbdc6138c	-0.09671697
55	0x3d60022d	0.054689575
56	0xbd7bcb6b	-0.06147329
57	0xbd660fa0	-0.056167245
58	0xbc3d3d93	-0.011550325
59	0xbd80a259	-0.06280965
60	0x3d84f986	0.06492905
61	0xbd86fa0a	-0.0659066
62	0x3db53a14	0.08848968
63	0xbd5d36f7	-0.054007497
64	0x3d86ddee	0.065852985
65	0xbb92b431	-0.004477047
66	0x3d837c35	0.06420175
67	0xbda21552	-0.07914223
68	0xbc4a500c	-0.012348186
69	0xbd8d896e	-0.06910978
70	0x3d32169a	0.043478586
71	0x3d7e8c79	0.062145684
72	0x3c1341b8	0.008987837
73	0x3d18ec7d	0.037334908
74	0xbcd279eb	-0.0256929
75	0x3d3682c6	0.04455831
76	0x3dad6f97	0.0846855
77	0x3d838baa	0.06423123
78	0x3c93b3bf	0.018030046
79	0xbda18622	-0.07886912
80	0xbd24c64a	-0.040228166
81	0x3d043699	0.03227863
82	0x3ca128ca	0.01967277
83	0x3dfc9a35	0.123341
84	0x3c9750c7	0.018471135
85	0xbdc07570	-0.093973994
86	0x3d2feaeb	0.042948645
87	0x3cb900cd	0.02258339
88	0x3cb9f291	0.022698672
89	0x3c65fadc	0.01403686
90	0x3cc0a9f3	0.023518538
91	0x3dc40538	0.09571308
92	0xbd27aa98	-0.040934175
93	0x3d09c5e0	0.033635974
94	0x3d187bbe	0.037227385
95	0x3db1eaca	0.086873606
96	0x3af6ec97	0.001883882
97	0x3c824146	0.015900265
98	0xbdce8c40	-0.10085344
99	0x3d2d7da8	0.042356163
100	0x3d383b76	0.04497858
101	0x3d188ca8	0.037243515
102	0xbd852abd	-0.06502292
103	0x3d6274d3	0.055287194
104	0x3c8a5e53	0.01689068
105	0xbd3ca40e	-0.046054892
106	0xbcba84f3	-0.022768473
107	0xbd7759bc	-0.06038831
108	0xbd1175bd	-0.035512675
109	0xbd3ec6b2	-0.04657621
110	0x3d9c21b1	0.076236136
111	0x3cafb650	0.021449238
112	0xbd045d12	-0.03231532
113	0xbd75b273	-0.059984636
114	0xbbe0f8bd	-0.0068655894
115	0x3d8c6b2c	0.06856379
116	0xbb6151e6	-0.003438109
117	0xbdb8b382	-0.090186134
118	0xbc069292	-0.008213656
119	0xbce4595f	-0.027874647
120	0x3cabb7d2	0.020961676
121	0x3d80650d	0.06269274
122	0x3c887f53	0.016662275
123	0xbd032794	-0.032020167
124	0x3dbe6c94	0.092980534
125	0xbd80521c	-0.06265661
126	0x3bb5415b	0.0055314726
127	0x3cfcba2c	0.030850492
128	0xbd28eb25	-0.041239876
129	0xbd8ffa5e	-0.070301756
130	0xbcc248b3	-0.023716306
131	0xbd2be431	-0.041965667
132	0xbdbfb841	-0.093613155
133	0xbca955c8	-0.020670786
134	0x3dc13a3b	0.09434935
135	0xbd1e46ee	-0.038641863
136	0x3c80f078	0.015739664
137	0x3bffefa0	0.007810548
138	0x3db1ca61	0.08681179
139	0xbdb76eeb	-0.08956703
140	0x3da2b2b0	0.07944238
141	0x3d14932e	0.036273174
142	0x3d53a53c	0.05167125
143	0xbda3974e	-0.079878435
144	0x3cd3660e	0.0258055
145	0xbd4a6d23	-0.049420487
146	0xbd8d7ff4	-0.06909171
147	0xbdb216f0	-0.08695781
148	0x3c833c99	0.016020106
149	0xbc62d7f0	-0.013845429
150	0x3dca59cc	0.09880409
151	0x3d8edef4	0.06976119
152	0x3ca84570	0.020540923
153	0xbc72f6cb	-0.014829348
154	0xbba07830	-0.00489714
155	0xbc624a32	-0.013811635
156	0x3d15bd77	0.03655764
157	0x3cc70d7e	0.024298426
158	0xbd814d0e	-0.06313525
159	0xbd9b47e4	-0.075820714
160	0x3d70bb12	0.058772154
161	0x3d2d6758	0.042334884
162	0xbd4c0e64	-0.04981841
163	0x3d1c34a4	0.03813614
164	0x3cef1749	0.029185908
165	0xbda40079	-0.08007903
166	0xbd9ce60b	-0.07661065
167	0x3da17a8f	0.07884704
168	0x3d818cd3	0.06325688
169	0xbcd28527	-0.025698258
170	0xbb168f75	-0.002297369
171	0xbd8303f0	-0.063972354
172	0xbb55f046	-0.0032644435
173	0x3c8544f2	0.016268227
174	0xbbd4d2b0	-0.0064948425
175	0xbcf66d35	-0.03008137
176	0x3d51a146	0.051179193
177	0xbd2d1187	-0.042253044
178	0x3d58574f	0.05281764
179	0xbd076b6e	-0.033061437
180	0xbd09be24	-0.033628598
181	0x3b11a992	0.0022226316
182	0xbd772f1f	-0.060347673
183	0xbcabc634	-0.020968534
184	0xbc828106	-0.015930664
185	0xbd256a7e	-0.040384762
186	0xbd79dfa7	-0.061004307
187	0xbd85e84d	-0.065384485
188	0xbd694da9	-0.056958828
189	0xbd94df45	-0.07269148
190	0xbd99deaa	-0.07513173
191	0xbd842979	-0.06453223
192	0xbc014f58	-0.007892452
193	0xbd72c0dd	-0.05926596
194	0x3bc12eb5	0.0058954605
195	0x3b8260f1	0.0039788415
196	0xbd8c759e	-0.06858371
197	0x3ce5b894	0.028042115
198	0x3d74b2c9	0.059740815
199	0xbdad7245	-0.08469061
200	0x3d57c856	0.05268129
201	0x3dbcafe7	0.09213238
202	0xbc9cef73	-0.019157147
203	0x3c2851ca	0.010273406
204	0x3d049174	0.032365277
205	0x3dbb4346	0.09143691
206	0xbc28f223	-0.010311636
207	0x3befc69b	0.007317377
208	0x3c8ed510	0.01743558
209	0x3d46435a	0.048404075
210	0x3d50ad56	0.050946556
211	0xbd49b23c	-0.049242243
212	0x3d17a879	0.037025902
213	0x3cec65d8	0.028857157
214	0xbd80d460	-0.06290507
215	0xba59e3aa	-0.00083118177
216	0xbd5bc87e	-0.053658
217	0x3d81fd45	0.063471355
218	0xbbb1bdf6	-0.0054242564
219	0x3dc957c8	0.09831196
220	0x3ccedb83	0.025251156
221	0x3b669136	0.0035181767
222	0xbc5d1fb8	-0.013496332
223	0xbd027eb0	-0.0318591
224	0xbc97f1c9	-0.01854791
225	0xbcb1a9af	-0.021687357
226	0x3da0078d	0.0781394
227	0xbdab8b02	-0.08376123
228	0xbcd7f221	-0.026360573
229	0x3d025e44	0.03182818
230	0xbcce58ee	-0.02518889
231	0xbcfd8ece	-0.030951884
232	0xbb779985	-0.0037780714
233	0xbcb26758	-0.021777794
234	0xbd8f708b	-0.07003888
235	0x3d456470	0.048191488
236	0x3c6f3073	0.014598954
237	0x3d8ecb36	0.06972353
238	0xbd9163c8	-0.0709911
239	0x3d9c3d83	0.0762892
240	0xbc8c68f0	-0.017139882
241	0x3db8f945	0.090319194
242	0xbd1da828	-0.038490444
243	0xbce94589	-0.02847554
244	0xbd8c90fc	-0.06863591
245	0xbc874a4d	-0.016514922
246	0xbcfd8fdd	-0.030952388
247	0xbd6fc088	-0.05853322
248	0x3d21ef17	0.039534654
249	0xbbd43165	-0.006475615
250	0xbd6f53c3	-0.05842949
251	0x3daaa6d8	0.08332604
252	0x3dc04b45	0.093893565
253	0xbd77e50a	-0.060521163
254	0xbc8186db	-0.015811374
255	0x3cd860c8	0.026413336

fc2.bias f4 [128]
0	0xbc4f119c	-0.012638476
1	0xbd90e6da	-0.070752814
2	0x3a9d04ad	0.0011979543
3	0x3cf03afa	0.029324997
4	0x3adb2273	0.0016718641
5	0xbd2decdb	-0.04246221
6	0xbd72cd60	-0.059277892
7	0x3dbc3a03	0.09190752
8	0x3dc7d0a2	0.097565904
9	0xbd230cb2	-0.03980703
10	0x3d37d317	0.044879045
11	0xbced8b80	-0.028997183
12	0x3dad83cf	0.08472406
13	0x3ca13105	0.019676695
14	0xbd51d54e	-0.051228814
15	0x3dbcc1a0	0.092166185
16	0x3cd532dd	0.02602523
17	0xbc97d2c4	-0.018533118
18	0xb9bb2a5e	-0.00035698985
19	0x3bb2acce	0.005452729
20	0xbd56e054	-0.05246003
21	0x3d07a1be	0.033113234
22	0x3cff13a7	0.0311373
23	0x3d7c9612	0.061666556
24	0xbc25d4f4	-0.010121573
25	0xbda88d09	-0.08230025
26	0x3d848fee	0.06472765
27	0x3d44967e	0.047995083
28	0x3ce02f1a	0.02736621
29	0xbd1d14c9	-0.0383499
30	0xbd57f3dd	-0.0527228
31	0xbca83c16	-0.020536464
32	0x3c39f79c	0.011350539
33	0xbd119c47	-0.03554943
34	0xbd0dac94	-0.03458841
35	0xbd0a43ce	-0.03375607
36	0x3dc17001	0.09445191
37	0xbd94c57c	-0.0726423
38	0xbc78e97d	-0.015192387
39	0x3d334064	0.04376258
40	0x3d0dec5a	0.03464923
41	0xbcd85dd2	-0.026411925
42	0x3d426206	0.047456764
43	0xbc3c1777	-0.011480204
44	0xbd2942a5	-0.041323323
45	0x3d596e5d	0.053083766
46	0x3d5003ec	0.05078499
47	0x3db11609	0.08646781
48	0xbd0b4214	-0.033998564
49	0x3d037b26	0.032099865
50	0xbd0a6223	-0.033784997
51	0x3d7d96e0	0.061911464
52	0x3daf7205	0.085666694
53	0x3cea4bde	0.02860063
54	0xbd59a227	-0.053133156
55	0xbcb294b1	-0.021799417
56	0x3cc2d6ae	0.023784008
57	0xbc9bc742	-0.019015912
58	0x3cc6615e	0.02421635
59	0x3da5257d	0.08063791
60	0xbda455db	-0.08024188
61	0xbc300912	-0.01074435
62	0xbd98254f	-0.07428991
63	0xbbb74065	-0.005592393
64	0xbb884868	-0.004159022
65	0x3cee1e91	0.02906731
66	0x3dbf2afa	0.09334369
67	0x3b6131bf	0.0034361926
68	0x3b0854b6	0.0020802445
69	0xbd5e22c3	-0.05423237
70	0x3d8e211f	0.06939911
71	0xbb7846f8	-0.0037884098
72	0x3d5f92bf	0.054583307
73	0xbda48df7	-0.0803489
74	0x3d606b15	0.05478962
75	0xbd563ff0	-0.05230707
76	0x3c778ee1	0.015109749
77	0xbd58b0ad	-0.052902866
78	0x3dd075f6	0.10178749
79	0x3dc00d97	0.09377592
80	0x3d5444c0	0.051823378
81	0x3d88221f	0.06647133
82	0xbc05ba56	-0.008162102
83	0x3a982a66	0.0011609315
84	0xbcc63bf4	-0.02419851
85	0xbc23afab	-0.009990613
86	0x3d3a0a73	0.04542012
87	0x3c1a024d	0.009399963
88	0x3da95b24	0.08269337
89	0xbd21788d	-0.039421607
90	0xbdbdda44	-0.092701465
91	0xbc18e7a6	-0.009332573
92	0xbd079053	-0.033096623
93	0xbc33bb79	-0.01096999
94	0x3d21c17f	0.039491173
95	0x3c7192fc	0.014744516
96	0xbd20b227	-0.0392324
97	0xbcc0ccf5	-0.023535231
98	0xbd4648c4	-0.04840924
99	0x3c57cb73	0.013171065
100	0x3ce0ce3d	0.027442092
101	0x3c1fd295	0.0097547965
102	0xbd2314cc	-0.039814755
103	0xbc3f35f1	-0.0116705755
104	0x3dbcc228	0.0921672
105	0x3bff6bb9	0.007794824
106	0xbc438f7c	-0.011936065
107	0x3d8cce7d	0.06875322
108	0x3cf72116	0.030167144
109	0x3d82d501	0.063882835
110	0x3d3dd8d4	0.04634936
111	0x3d8f9865	0.07011489
112	0xbd96f614	-0.073711544
113	0x3d298861	0.041389827
114	0xbd3ab422	-0.045581944
115	0xbccd9ce1	-0.02509922
116	0xbd576e24	-0.052595273
117	0x3d856fb9	0.0651545
118	0xbc3fa0bf	-0.01169604
119	0xbd23d840	-0.040001154
120	0x3d4e05e0	0.05029857
121	0x3d52a72c	0.05142896
122	0x3b729d40	0.0037019998
123	0xbcd76737	-0.026294334
124	0xbd75614e	-0.05990725
125	0x3d3d9bb0	0.046291053
126	0x3d89011a	0.06689663
127	0xbbea4108	-0.0071488656

output.weight f4 [2, 128]
0	0x3da31357	0.07962673
1	0xbd1397c0	-0.036033392
2	0x3c9a0cd8	0.018804953
3	0xbcc49fc2	-0.02400196
4	0xbd18d75e	-0.037314765
5	0xbdb44ea0	-0.08804059
6	0x3ddf8747	0.10914474
7	0x3dc84036	0.09777872
8	0x3ddcf86a	0.10789569
9	0xbded4d06	-0.11586957
10	0x3c6ecf1f	0.014575749
11	0xbdec8aeb	-0.11549934
12	0x3da053b1	0.07828463
13	0x3d4ba3d0	0.04971677
14	0xbde81ca8	-0.11333591
15	0xbda27843	-0.07933094
16	0xbd2cf746	-0.042228006
17	0xbde8fee0	-0.113767385
18	0xbcbcbd0a	-0.02303936
19	0xbdda0130	-0.10644758
20	0xbe1abb3e	-0.1511049
21	0x3dd211eb	0.10257324
22	0x3db83fda	0.08996554
23	0xbd0db6b8	-0.034598082
24	0xbda7c368	-0.08191568
25	0xbc786314	-0.015160341
26	0xbca2ec3a	-0.019888032
27	0x3dee99fc	0.11650464
28	0x3de3b10a	0.11117752
29	0xbde2b4cc	-0.110696405
30	0xbd87dd0d	-0.06633959
31	0x3d5f4c07	0.054515865
32	0xbd50559d	-0.050862897
33	0xbdf1f326	-0.11813955
34	0xbd9a8e35	-0.07546655
35	0x3d316e1c	0.0433179
36	0x3cac9ffc	0.02107238
37	0x3d901aa9	0.07036335
38	0xbe092adb	-0.13395254
39	0x3ce84a69	0.028355794
40	0xbd8c8e16	-0.06863038
41	0x3c88422c	0.016633116
42	0xbdcfdaeb	-0.10149177
43	0xbe0bd5df	-0.13655804
44	0xbdc8bdb2	-0.098018065
45	0xbd907414	-0.0705339
46	0xbd9fb507	-0.077982
47	0xbb259eaf	-0.0025271585
48	0xba121ded	-0.00055739173
49	0xbc4d36f9	-0.0125253135
50	0xbc3413ca	-0.010991046
51	0xbd950c8a	-0.07277782
52	0x3dd6b855	0.10484377
53	0x3ce65ebd	0.028121347
54	0xbe18acc1	-0.1490965
55	0xbddffee8	-0.109372914
56	0xbcc0b158	-0.023522064
57	0xbd76d0a8	-0.060257584
58	0x3db74270	0.08948219
59	0x3db40a78	0.08791059
60	0x3d9ea06e	0.07745443
61	0xbdbbe073	-0.0917367
62	0xbd839158	-0.064242065
63	0x39f457e3	0.00046604787
64	0xbdb6a5f6	-0.08918373
65	0xbd9a25c8	-0.075267375
66	0xbda52fbd	-0.08065746
67	0x3dd91253	0.10599198
68	0x3d7688af	0.060188945
69	0xbd918652	-0.07105698
70	0xbd623ede	-0.055235736
71	0xbdd642a8	-0.104619324
72	0xbd99f18c	-0.075167745
73	0x3cbbe6e4	0.022937246
74	0xbdc3b927	-0.095567994
75	0xbdcbf484	-0.09958747
76	0x3dbe867d	0.09302995
77	0x3d0fa182	0.035066135
78	0xbdc1986d	-0.09452901
79	0xbda0f5ba	-0.078593686
80	0xbe0675c9	-0.13130869
81	0xbd96a39b	-0.07355424
82	0x3d28199f	0.04104006
83	0xbe0d4661	-0.13796379
84	0xbc1a725f	-0.009426682
85	0xbdfb0edc	-0.122586936
86	0x3d1c7efb	0.038207036
87	0x3bb084da	0.005386931
88	0x3de4382a	0.11143525
89	0xbdbed0e7	-0.09317189
90	0xbceb257e	-0.028704401
91	0xbd9fd1c5	-0.07803682
92	0xbdb0b1ad	-0.08627639
93	0x3d964985	0.073382415
94	0xbdfebac9	-0.1243797
95	0xbd49ab99	-0.049235914
96	0xbdbcdcb9	-0.09221787
97	0x3db471ca	0.08810766
98	0xbd8f81cc	-0.07007179
99	0x3ca8397d	0.020535225
100	0xbd9e4f66	-0.07729988
101	0xbdd0fe97	-0.10204809
102	0x3cc4e520	0.024035037
103	0xbda49a42	-0.08037235
104	0x3d997d3e	0.07494591
105	0xbde6470b	-0.11244019
106	0xbd0972f4	-0.033556893
107	0x3d972a60	0.07381129
108	0x3bb486c9	0.0055092317
109	0x3d93a5d9	0.07209367
110	0xbd32092c	-0.04346578
111	0xbbc7e2c6	-0.0061000315
112	0xbd364316	-0.044497572
113	0xbdd0c14b	-0.10193118
114	0xbdb7722e	-0.08957325
115	0x3da7fd98	0.08202666
116	0x3cf82d61	0.030295076
117	0x3d82b11b	0.063814364
118	0x3dc33ec6	0.095334575
119	0x3ce4ae2f	0.027915088
120	0xbd87700f	-0.0661317
121	0xbe02d94c	-0.12778205
122	0x3c981ab4	0.01856742
123	0x3d2c7cf1	0.04211134
124	0xbdc2b997	-0.09508055
125	0xbd91f698	-0.07127112
126	0x3dc6808d	0.09692488
127	0x3cd2e692	0.02574471
128	0xbbdf0de1	-0.0068070744
129	0xbdb45dcb	-0.08806952
130	0x3de6f9e8	0.112781346
131	0x3aab1c2a	0.0013054658
132	0x3d1b7111	0.037949625
133	0xba00ab38	-0.0004908326
134	0xbcd39e46	-0.025832307
135	0x3c87f753	0.016597426
136	0x3cec0610	0.028811485
137	0x3ccaf03e	0.02477276
138	0xbdf8b4be	-0.12143849
139	0x3de40e27	0.11135512
140	0x3a859b0e	0.0010193305
141	0xbd178f2d	-0.037001777
142	0x3c2c4482	0.01051438
143	0x3d8cf6a2	0.06882979
144	0x3d5379ca	0.05162982
145	0x3d8135e8	0.0630911
146	0xbdf2ad20	-0.11849427
147	0x3cd4081b	0.025882771
148	0x3dd1aa0e	0.102375135
149	0x3ba88486	0.005142751
150	0x3c6a5681	0.014302851
151	0x3d7e564c	0.062094018
152	0x3ddf8e3a	0.109157994
153	0xbcfdf56d	-0.031000817
154	0x3db08dd0	0.086207986
155	0xbaa837c4	-0.0012834002
156	0xbd8fe91c	-0.07026884
157	0xbc32f8d8	-0.010923587
158	0x3db06e19	0.086147495
159	0x3c115272	0.008869754
160	0x3d84c283	0.06482413
161	0x3c243029	0.010021248
162	0x3df215cf	0.11820566
163	0xbd918422	-0.071052805
164	0xbd9bd160	-0.076082945
165	0xbc3136cc	-0.010816287
166	0x3d561d11	0.052273814
167	0x3dd9c8eb	0.10634025
168	0x3b614ba5	0.0034377363
169	0x3dc13ac2	0.09435035
170	0x3dd0e30d	0.101995565
171	0x3daebdf4	0.085323244
172	0x3c934520	0.017977297
173	0x3dced24f	0.10098707
174	0xbce08490	-0.02740696
175	0xbdd2e66f	-0.10297858
176	0xbd80b7c8	-0.062850535
177	0x3d8175e9	0.06321318
178	0xbdfa5fa9	-0.12225277
179	0x3d13fd94	0.036130503
180	0xbc13f393	-0.009030241
181	0xbd1d3af9	-0.03838632
182	0x3de988ce	0.114030465
183	0xbb2f1e52	-0.0026720953
184	0x3cef0b8a	0.029180307
185	0x3d3d3373	0.046191644
186	0xbdec9c37	-0.11553233
187	0x3d4aa37a	0.04947231
188	0x3d3c04b5	0.045902926
189	0x3d47771a	0.04869757
190	0xbdb46836	-0.08808939
191	0x3d9a0aef	0.07521617
192	0x3e0f2789	0.13979925
193	0x3dbfb18f	0.093600385
194	0x3dd18f3f	0.102324
195	0xbbbcea98	-0.0057652704
196	0xbd824c67	-0.06362229
197	0x3cec5ec7	0.028853787
198	0x3df052fd	0.11734579
199	0x3de95d4f	0.1139475
200	0x3ceaf494	0.028681077
201	0xbb44914b	-0.0029993828
202	0x3dc84e40	0.0978055
203	0x3dc9b27b	0.098484956
204	0xbccc2cb8	-0.024923667
205	0xbd91ad9d	-0.07113192
206	0x3bea09f0	0.007142298
207	0xbb00b585	-0.0019639444
208	0xbc56d5c2	-0.013112487
209	0x3d2a6b75	0.041606385
210	0xbd5abf97	-0.05340537
211	0x3dda26e8	0.10651952
212	0xbde1987a	-0.11015411
213	0x3c25667b	0.010095234
214	0xbd5e2a45	-0.05423953
215	0xbd96a32b	-0.073553406
216	0x3bc368de	0.005963429
217	0x3d5579cc	0.052118108
218	0xbd536cb8	-0.051617354
219	0x3ce3d1c8	0.027809992
220	0xbd47b275	-0.048754174
221	0xbcf94209	-0.030426996
222	0x3df643f6	0.12024681
223	0x3dec8258	0.115482986
224	0x3b9b73a9	0.0047440124
225	0xbd128a10	-0.035776198
226	0x3d2d8aa9	0.042368565
227	0xbdbdffdb	-0.09277316
228	0x3e02e69e	0.12783286
229	0x3d894e28	0.0670436
230	0xbd1cf02c	-0.038314983
231	0x3d8eddf5	0.06975929
232	0xbc78a7c6	-0.015176719
233	0x3d256995	0.040383894
234	0x3d2aeb00	0.04172802
235	0xbd5985c4	-0.053106084
236	0xbd8f7461	-0.070046194
237	0xbdc000d1	-0.09375156
238	0x3dd603bb	0.1044993
239	0xbd980a25	-0.0742381
240	0xbd473c11	-0.04864127
241	0xbcb8ab19	-0.022542523
242	0x3dae50b3	0.08511486
243	0x3ba3682f	0.004986785
244	0xbd6da4ca	-0.058018483
245	0xbd3ba84c	-0.045814797
246	0xbb590c22	-0.0033118804
247	0xbd38b4d2	-0.04509432
248	0x3d9a2155	0.07525889
249	0x3d337efa	0.043822266
250	0x3db3d1a6	0.08780222
251	0xbd7afe50	-0.061277688
252	0x3d90fab1	0.070790656
253	0x3cf27a64	0.029599376
254	0xbc1b0d73	-0.009463656
255	0x3df7e2ca	0.121038035

output.bias f4 [2]
0	0xbd44377d	-0.04790448
1	0x3dacc53c	0.08436057
